model/model_weights.pth (torch, 668773 bytes, 9 tensors)

visual_fc.weight f4 [128, 512]
0	0x00089f4c	7.91829e-40
1	0x801b3fca	-2.502442e-39
2	0x1b6bda94	1.9509371e-22
3	0x96c0d9d9	-3.1156754e-25
4	0x002e975a	4.278728e-39
5	0x8019ba73	-2.362773e-39
6	0x8035777a	-4.910141e-39
7	0x801f25d7	-2.860475e-39
8	0x00018adb	1.41647e-40
9	0x85812600	-1.214506e-35
10	0x801f87e1	-2.895645e-39
11	0x8b2d0610	-3.332315e-32
12	0x00484a07	6.638712e-39
13	0x801e8e06	-2.806013e-39
14	0x001c4e96	2.599585e-39
15	0x804abc4e	-6.863378e-39
16	0x0010c8a5	1.541346e-39
17	0x0033092a	4.686898e-39
18	0x800bc266	-1.079927e-39
19	0x000aef4d	1.0042e-39
20	0x800e7aa0	-1.329687e-39
21	0x801293c7	-1.706051e-39
22	0x80191dd2	-2.306585e-39
23	0x96346434	-1.4571903e-25
24	0x800264d2	-2.19839e-40
25	0x8006e92c	-6.34659e-40
26	0x80026c4b	-2.22519e-40
27	0x049351be	3.4634602e-36
28	0x801e174a	-2.76342e-39
29	0x800a5848	-9.50024e-40
30	0x801833d1	-2.22264e-39
31	0x00019522	1.45334e-40
32	0x801b2d2e	-2.495766e-39
33	0x803f4935	-5.811898e-39
34	0x801c4a63	-2.598079e-39
35	0x801f7774	-2.889752e-39
36	0x800796f8	-6.97006e-40
37	0x80143c1e	-1.858276e-39
38	0x002b4ecd	3.977195e-39
39	0x00182464	2.217106e-39
40	0x80104919	-1.49559e-39
41	0x8026cc26	-3.562984e-39
42	0x801b1e36	-2.490396e-39
43	0x801d3ed7	-2.685772e-39
44	0x801d13cd	-2.670333e-39
45	0x801d2cbc	-2.679277e-39
46	0x002f888a	4.36525e-39
47	0x00065f84	5.85278e-40
48	0x8017e745	-2.19518e-39
49	0x00022883	1.98204e-40
50	0xa2a0431c	-4.343914e-18
51	0x80208f66	-2.990178e-39
52	0x802669af	-3.527661e-39
53	0x002b8fa3	4.000453e-39
54	0x801b3c3e	-2.501169e-39
55	0x800c46be	-1.127403e-39
56	0x94ea60e1	-2.3666174e-26
57	0x8018e587	-2.286391e-39
58	0x80223c23	-3.14398e-39
59	0x8020bc92	-3.006382e-39
60	0x0018a938	2.264756e-39
61	0x80135455	-1.775127e-39
62	0x801aeae3	-2.471984e-39
63	0x8015bc3f	-1.996075e-39
64	0x8d0704db	-4.160593e-31
65	0x801dba0e	-2.729973e-39
66	0x133e7be6	2.4042458e-27
67	0x0049e8c0	6.787486e-39
68	0x8040322b	-5.895469e-39
69	0x00147250	1.877718e-39
70	0x002c4d14	4.068412e-39
71	0x8006d8ab	-6.28739e-40
72	0x80249e18	-3.362791e-39
73	0x001ef8ea	2.844358e-39
74	0x00385038	5.171565e-39
75	0x00055bad	4.92065e-40
76	0x001a6bd1	2.4264e-39
77	0x8023b2bd	-3.278362e-39
78	0x002556f2	3.429103e-39
79	0x801751a5	-2.141505e-39
80	0x00129dcd	1.709647e-39
81	0x0a241057	7.899386e-33
82	0x04b41ca7	4.234411e-36
83	0x8009ab93	-8.88069e-40
84	0x800d67b3	-1.231062e-39
85	0x8a858fcf	-1.2861529e-32
86	0x80051b3b	-4.68946e-40
87	0x801ad184	-2.462883e-39
88	0x80118c36	-1.611502e-39
89	0x8041d09c	-6.044142e-39
90	0x80234cb5	-3.24176e-39
91	0x8031a4c5	-4.559047e-39
92	0x00175f58	2.14642e-39
93	0x800380d3	-3.2172e-40
94	0x10d19a63	8.2673835e-29
95	0x8029f441	-3.852877e-39
96	0x21edaf6a	1.6106176e-18
97	0x1c170e4a	4.9980177e-22
98	0x8027d9aa	-3.659668e-39
99	0x80259e1e	-3.454635e-39
100	0x001abb4d	2.454914e-39
101	0x001c5649	2.602347e-39
102	0x8029cd1d	-3.838836e-39
103	0x00471213	6.526804e-39
104	0xa590026f	-2.4981667e-16
105	0x0672d66b	4.567267e-35
106	0x801a3bad	-2.40913e-39
107	0x8003bec9	-3.43947e-40
108	0x801ccc36	-2.644651e-39
109	0x80a65ba9	-1.5277574e-38
110	0x001d7869	2.706424e-39
111	0x801f38a7	-2.867223e-39
112	0x00135d78	1.778405e-39
113	0x8074dcb7	-1.0732095e-38
114	0x001a495d	2.41404e-39
115	0x001fdf95	2.927107e-39
116	0x91a85d34	-2.6563167e-28
117	0x801ea030	-2.81253e-39
118	0x802099af	-2.993867e-39
119	0x8019786d	-2.339088e-39
120	0xa191b157	-9.872524e-19
121	0x802b7dea	-3.994096e-39
122	0x8007adb6	-7.05164e-40
123	0x800f31d7	-1.395412e-39
124	0x80147aa5	-1.880706e-39
125	0x0014cd0f	1.910271e-39
126	0x8015b835	-1.994626e-39
127	0x0636d17f	3.438431e-35
128	0x9a522f4e	-4.3465195e-23
129	0x801e2f94	-2.772133e-39
130	0x00361432	4.966362e-39
131	0x80131266	-1.751475e-39
132	0x0028b71b	3.739106e-39
133	0x800b0fa7	-1.015805e-39
134	0x0002f321	2.70889e-40
135	0x8c0b9c4a	-1.0755202e-31
136	0x800c6ed6	-1.141786e-39
137	0x0024f34f	3.39336e-39
138	0x000f94ce	1.430914e-39
139	0x800857cd	-7.66181e-40
140	0x801eb2bd	-2.819184e-39
141	0x8018b4e4	-2.268943e-39
142	0x25945168	2.572907e-16
143	0x801f0c56	-2.851326e-39
144	0x80345b68	-4.808236e-39
145	0x80204676	-2.964012e-39
146	0x80103f48	-1.492069e-39
147	0x1a39c59a	3.8416725e-23
148	0x00167e38	2.06566e-39
149	0x8015d92e	-2.006455e-39
150	0x0d06d8be	4.155283e-31
151	0x002342da	3.238224e-39
152	0x000b178c	1.018637e-39
153	0x000937b1	8.46498e-40
154	0xa5c45576	-3.405849e-16
155	0x801d5762	-2.694576e-39
156	0x00007f5e	4.5691e-41
157	0x8020161d	-2.946669e-39
158	0x0030a34f	4.466688e-39
159	0x00181e97	2.215025e-39
160	0x803b3ac8	-5.439381e-39
161	0x8017c9c1	-2.184592e-39
162	0x001607d8	2.023195e-39
163	0x18d986dc	5.622936e-24
164	0x8036f6bd	-5.04763e-39
165	0x00250e68	3.403081e-39
166	0x80162210	-2.0326e-39
167	0x8025425f	-3.421723e-39
168	0x802d33f7	-4.151239e-39
169	0x801f9012	-2.898583e-39
170	0x0018d1c4	2.279302e-39
171	0x801e8942	-2.804304e-39
172	0x801925ce	-2.309449e-39
173	0x0007e404	7.24645e-40
174	0x1d509ea5	2.7610588e-21
175	0x280622ca	7.446038e-15
176	0x800fbd2c	-1.445395e-39
177	0x0002e312	2.65128e-40
178	0x001d08aa	2.666337e-39
179	0x000f494a	1.403824e-39
180	0x80032b88	-2.91123e-40
181	0x8019beb4	-2.364299e-39
182	0x00227bd4	3.166828e-39
183	0x908888c3	-5.3853256e-29
184	0x80159aa5	-1.984021e-39
185	0x8015fbbd	-2.018852e-39
186	0x001ce72c	2.654323e-39
187	0x163c6fbc	1.5221776e-25
188	0x80113531	-1.580285e-39
189	0x8018d1bd	-2.279292e-39
190	0x8040ba16	-5.944227e-39
191	0x802849b4	-3.69986e-39
192	0xa6f43686	-1.694568e-15
193	0x801a2bbf	-2.403416e-39
194	0x02a740c5	2.457562e-37
195	0x00174709	2.137699e-39
196	0x8c1be368	-1.2009198e-31
197	0x800b43a3	-1.034454e-39
198	0x8fc33e64	-1.9252517e-29
199	0x0025a338	3.456465e-39
200	0x801c4487	-2.595977e-39
201	0x801ce656	-2.654023e-39
202	0x00136d23	1.784025e-39
203	0x001e2428	2.768035e-39
204	0x801955d5	-2.326678e-39
205	0x8015b394	-1.992966e-39
206	0x869b5da3	-5.8442107e-35
207	0x00427910	6.104572e-39
208	0x8ff40be4	-2.4064838e-29
209	0x005636ce	7.917513e-39
210	0x8007c906	-7.14962e-40
211	0x802f5bdf	-4.349225e-39
212	0x802412e6	-3.312857e-39
213	0x000d81ce	1.240427e-39
214	0x8031fedc	-4.591366e-39
215	0x801e0a23	-2.758701e-39
216	0x802016e5	-2.946949e-39
217	0x801b404e	-2.502627e-39
218	0x80197440	-2.33759e-39
219	0x08d25299	1.2658334e-33
220	0x00174089	2.135367e-39
221	0x06628920	4.260662e-35
222	0x00216163	3.065507e-39
223	0x80196f16	-2.335738e-39
224	0x801f5354	-2.876793e-39
225	0x80230c89	-3.218739e-39
226	0x0c2f5971	1.3508425e-31
227	0x8018ce8c	-2.278147e-39
228	0x8014a5cb	-1.896185e-39
229	0x8015c579	-1.999385e-39
230	0x000973d5	8.68072e-40
231	0x8009ffae	-9.1824e-40
232	0x0013ab33	1.806289e-39
233	0x800da6ae	-1.253655e-39
234	0x13931478	3.71282e-27
235	0x00085cca	7.6797e-40
236	0x8043c0b9	-6.222114e-39
237	0x800a405d	-9.41444e-40
238	0x800279ad	-2.2732e-40
239	0x11b984b7	2.9269645e-28
240	0x0039219f	5.246684e-39
241	0x8013ffc4	-1.836626e-39
242	0x95001bb9	-2.5871263e-26
243	0x992e56c3	-9.0131106e-24
244	0x80133aa1	-1.765907e-39
245	0x8006fe42	-6.42223e-40
246	0x801b2c58	-2.495466e-39
247	0x001b773e	2.522334e-39
248	0x003de5e6	5.684437e-39
249	0x800cca8e	-1.174689e-39
250	0x80175e02	-2.14594e-39
251	0x801fc7ee	-2.918622e-39
252	0x0023d719	3.291405e-39
253	0x0039eadb	5.318874e-39
254	0x802b9ef4	-4.005948e-39
255	0x03536f8a	6.2135368e-37

visual_fc.bias f4 [128]
0	0x8020e8bd	-3.022227e-39
1	0xbc505e88	-0.0127178505
2	0x0013f58f	1.832964e-39
3	0xb3fe6f8a	-1.18480855e-07
4	0xbca9fd89	-0.020750778
5	0x800102e0	-9.2867e-41
6	0xbc1cb1dd	-0.00956389
7	0x8021f384	-3.117928e-39
8	0x397eb6e5	0.00024291461
9	0xbc5ff200	-0.013668537
10	0xbc073327	-0.008251942
11	0xb4fe05a4	-4.731529e-07
12	0x3cda7a9c	0.026669793
13	0xbcd062e4	-0.02543778
14	0xbce96fbf	-0.028495668
15	0xb92b69fd	-0.00016347315
16	0xb4054a0f	-1.2413533e-07
17	0xbac530fe	-0.0015044508
18	0xb1cc78b3	-5.9509033e-09
19	0xbc3b0bc7	-0.011416382
20	0x8dc28fbd	-1.1990777e-30
21	0x800f214a	-1.389474e-39
22	0xbb89b58b	-0.00420255
23	0x3c2fc844	0.010728899
24	0xb9898c01	-0.00026234987
25	0xbb8f5ca1	-0.004375056
26	0x33291ecf	3.93764e-08
27	0xba62c6f4	-0.0008650862
28	0x801ca337	-2.629944e-39
29	0x8253d4a8	-1.5562861e-37
30	0xb504bd5b	-4.944938e-07
31	0x80026d15	-2.22802e-40
32	0xb4ba1246	-3.4658495e-07
33	0x16585ec8	1.7478249e-25
34	0x3d69332b	0.056933563
35	0xbd011284	-0.0315118
36	0xbc268b69	-0.010165074
37	0x3cad1f90	0.021133214
38	0xbc981f3c	-0.018569581
39	0xb5fa382d	-1.8642801e-06
40	0x8002ce26	-2.57623e-40
41	0xbb989dfc	-0.004657505
42	0xb1d5b0c6	-6.2192127e-09
43	0x801d4330	-2.687332e-39
44	0x3cd89668	0.026438907
45	0xbc26aaf6	-0.010172596
46	0x9f489e9b	-4.2482843e-20
47	0xaa974a32	-2.6874472e-13
48	0xb2ef5cd2	-2.7865472e-08
49	0x80139609	-1.798697e-39
50	0x3cc3622a	0.02385052
51	0xafa74775	-3.0427896e-10
52	0xbca5a5a8	-0.020220593
53	0x1eddc43d	2.3480447e-20
54	0x3a36a406	0.00069671904
55	0xb59ddeb9	-1.1762232e-06
56	0xbc44b368	-0.012005664
57	0x800149f2	-1.18362e-40
58	0x3d59128c	0.052996203
59	0xbc4d0495	-0.0125132995
60	0x3cf1d1b2	0.029518936
61	0xb98979de	-0.00026221474
62	0xacc6b146	-5.6471798e-12
63	0xbcc60e8d	-0.02417686
64	0xa4e36347	-9.861374e-17
65	0x800b330c	-1.028503e-39
66	0x001b4634	2.504743e-39
67	0xa75f529a	-3.0992245e-15
68	0x80190db1	-2.300799e-39
69	0x955657d9	-4.3286255e-26
70	0xae747ae7	-5.5588336e-11
71	0x9a75a540	-5.07983e-23
72	0xbb14ddeb	-0.0022715281
73	0xb6da656e	-6.5087143e-06
74	0x3c04c12c	0.008102696
75	0xb63b625a	-2.792242e-06
76	0x92344127	-5.687829e-28
77	0x3d13d008	0.036087066
78	0xb0d2c524	-1.5335542e-09
79	0xbc882b7d	-0.0166223
80	0xbc6603f3	-0.0140390275
81	0xbbb77a18	-0.0055992715
82	0x003ec2ee	5.763728e-39
83	0x8048e25e	-6.693361e-39
84	0xbc9f9878	-0.019481882
85	0xbce642f1	-0.028108092
86	0x0042427c	6.084993e-39
87	0xbc2b7f0c	-0.010467302
88	0x8010fbf6	-1.559754e-39
89	0xbcecd382	-0.028909449
90	0xbc31c5f2	-0.0108504165
91	0xb83f8f32	-4.567131e-05
92	0xbc509c4d	-0.0127325775
93	0xbce0d0f2	-0.027443383
94	0x9d72af1c	-3.2118963e-21
95	0x3d1017a7	0.035178807
96	0x0030aada	4.469394e-39
97	0x3c27ed14	0.010249395
98	0xb24dd40c	-1.1980784e-08
99	0x803a288c	-5.341004e-39
100	0xbc54565d	-0.012960044
101	0xb7c667bf	-2.365175e-05
102	0x8012dbe3	-1.73192e-39
103	0xbc40e203	-0.011772635
104	0x002b1a3d	3.958339e-39
105	0xbbccf26c	-0.006254485
106	0x3c10328a	0.008801112
107	0x927d1f9a	-7.9871676e-28
108	0xa852b245	-1.1695998e-14
109	0x802df152	-4.219167e-39
110	0x3cb1d97b	0.021710148
111	0x00013ade	1.12953e-40
112	0xbcb76b81	-0.022390129
113	0x8002cf80	-2.58108e-40
114	0x015dc412	4.0731963e-38
115	0x800ea6b6	-1.345502e-39
116	0xba80abf6	-0.0009816873
117	0xbd18ee65	-0.037336726
118	0xbc075d6f	-0.008262022
119	0x102b726a	3.3811945e-29
120	0x800e3ef8	-1.308286e-39
121	0xbcdfc274	-0.027314402
122	0xbd2059b4	-0.039148048
123	0xb85c9306	-5.2589014e-05
124	0x80052a23	-4.74293e-40
125	0xbbaa428a	-0.0051959204
126	0xbc30fb64	-0.010802124
127	0xa01f5d16	-1.3498623e-19

audio_fc.bias f4 [128]
0	0x00000000	0.0
1	0x00000000	0.0
2	0x00000000	0.0
3	0x00000000	0.0
4	0x00000000	0.0
5	0x00000000	0.0
6	0x00000000	0.0
7	0x00000000	0.0
8	0x00000000	0.0
9	0x00000000	0.0
10	0x00000000	0.0
11	0x00000000	0.0
12	0x00000000	0.0
13	0x00000000	0.0
14	0x00000000	0.0
15	0x00000000	0.0
16	0x00000000	0.0
17	0x00000000	0.0
18	0x00000000	0.0
19	0x00000000	0.0
20	0x00000000	0.0
21	0x00000000	0.0
22	0x00000000	0.0
23	0x00000000	0.0
24	0x00000000	0.0
25	0x00000000	0.0
26	0x00000000	0.0
27	0x00000000	0.0
28	0x00000000	0.0
29	0x00000000	0.0
30	0x00000000	0.0
31	0x00000000	0.0
32	0x00000000	0.0
33	0x00000000	0.0
34	0x00000000	0.0
35	0x00000000	0.0
36	0x00000000	0.0
37	0x00000000	0.0
38	0x00000000	0.0
39	0x00000000	0.0
40	0x00000000	0.0
41	0x00000000	0.0
42	0x00000000	0.0
43	0x00000000	0.0
44	0x00000000	0.0
45	0x00000000	0.0
46	0x00000000	0.0
47	0x00000000	0.0
48	0x00000000	0.0
49	0x00000000	0.0
50	0x00000000	0.0
51	0x00000000	0.0
52	0x00000000	0.0
53	0x00000000	0.0
54	0x00000000	0.0
55	0x00000000	0.0
56	0x00000000	0.0
57	0x00000000	0.0
58	0x00000000	0.0
59	0x00000000	0.0
60	0x00000000	0.0
61	0x00000000	0.0
62	0x00000000	0.0
63	0x00000000	0.0
64	0x00000000	0.0
65	0x00000000	0.0
66	0x00000000	0.0
67	0x00000000	0.0
68	0x00000000	0.0
69	0x00000000	0.0
70	0x00000000	0.0
71	0x00000000	0.0
72	0x00000000	0.0
73	0x00000000	0.0
74	0x00000000	0.0
75	0x00000000	0.0
76	0x00000000	0.0
77	0x00000000	0.0
78	0x00000000	0.0
79	0x00000000	0.0
80	0x00000000	0.0
81	0x00000000	0.0
82	0x00000000	0.0
83	0x00000000	0.0
84	0x00000000	0.0
85	0x00000000	0.0
86	0x00000000	0.0
87	0x00000000	0.0
88	0x00000000	0.0
89	0x00000000	0.0
90	0x00000000	0.0
91	0x00000000	0.0
92	0x00000000	0.0
93	0x00000000	0.0
94	0x00000000	0.0
95	0x00000000	0.0
96	0x00000000	0.0
97	0x00000000	0.0
98	0x00000000	0.0
99	0x00000000	0.0
100	0x00000000	0.0
101	0x00000000	0.0
102	0x00000000	0.0
103	0x00000000	0.0
104	0x00000000	0.0
105	0x00000000	0.0
106	0x00000000	0.0
107	0x00000000	0.0
108	0x00000000	0.0
109	0x00000000	0.0
110	0x00000000	0.0
111	0x00000000	0.0
112	0x00000000	0.0
113	0x00000000	0.0
114	0x00000000	0.0
115	0x00000000	0.0
116	0x00000000	0.0
117	0x00000000	0.0
118	0x00000000	0.0
119	0x00000000	0.0
120	0x00000000	0.0
121	0x00000000	0.0
122	0x00000000	0.0
123	0x00000000	0.0
124	0x00000000	0.0
125	0x00000000	0.0
126	0x00000000	0.0
127	0x00000000	0.0

fc1.weight f4 [256, 256]
0	0x2529a81b	1.471537e-16
1	0xbd1e7d7e	-0.038693897
2	0x80130b08	-1.748832e-39
3	0x39ce2846	0.00039321388
4	0xbe35337a	-0.17695418
5	0x8013d004	-1.819496e-39
6	0xbc81611a	-0.015793372
7	0x86447d41	-3.6955525e-35
8	0xbcfca497	-0.030840201
9	0xb9dc163c	-0.00041978236
10	0xbc8448aa	-0.01614793
11	0x3c16201b	0.009162928
12	0xbde8b2e7	-0.11362248
13	0xbe48e505	-0.19618614
14	0xbe4428df	-0.19156216
15	0x3c9b1bc7	0.018934144
16	0xbb0a5820	-0.0021109655
17	0x3b4def39	0.0031423105
18	0x330587ec	3.1090096e-08
19	0x3c12028b	0.008911739
20	0x9d35222a	-2.3972813e-21
21	0x8009e8dd	-9.10055e-40
22	0xbcf95233	-0.030434703
23	0xbd25c420	-0.040470243
24	0xbc27316f	-0.010204657
25	0xbd342d8a	-0.043988742
26	0xb8e58446	-0.00010944209
27	0x3a8587cb	0.0010187564
28	0x000c2c73	1.117971e-39
29	0x25910fe6	2.5164264e-16
30	0xb5893dca	-1.0225278e-06
31	0x800edc3d	-1.364704e-39
32	0x39b6428c	0.00034763326
33	0x8c813862	-1.9909531e-31
34	0x3e134b0c	0.14384097
35	0xbd551892	-0.052025385
36	0xbc88127f	-0.016610382
37	0xbd699d59	-0.057034824
38	0xbb7666a4	-0.00375978
39	0xb3bb92c9	-8.734566e-08
40	0x800eb585	-1.350814e-39
41	0x3bc08b14	0.0058759544
42	0x35f0aa30	1.7930925e-06
43	0xb695260f	-4.4449766e-06
44	0xbe2c6487	-0.16835223
45	0x3d17c065	0.037048716
46	0x3825021d	3.9341034e-05
47	0x3517dccb	5.657318e-07
48	0x38375830	4.371273e-05
49	0x000ccc69	1.175355e-39
50	0x3dffcf3e	0.124907
51	0xbbee8865	-0.007279443
52	0xbcbefbdc	-0.023313455
53	0x9bd2faa2	-3.4903553e-22
54	0xbdeda63b	-0.116039716
55	0x390b15a1	0.0001326413
56	0x3c1ff86d	0.009763819
57	0x26bcb750	1.3094807e-15
58	0x3db7b84c	0.08970699
59	0x3d04b940	0.03240323
60	0x3cdea78f	0.027179508
61	0xbac98f71	-0.0015377832
62	0xbb09ee49	-0.002104657
63	0xbc9057b8	-0.017619953
64	0x325b81ff	1.2777035e-08
65	0x002a751d	3.899103e-39
66	0x80498508	-6.751714e-39
67	0xb8bf5439	-9.1232774e-05
68	0x063092f7	3.3209894e-35
69	0x2d3b5cca	1.0650323e-11
70	0x29f13960	1.0712503e-13
71	0x161e8286	1.2804324e-25
72	0x3ccada93	0.024762427
73	0x3c2242d5	0.009903629
74	0x3ae67aa6	0.001758416
75	0xbc792755	-0.015207131
76	0x17b9906b	1.1991801e-24
77	0xbd88530a	-0.066564634
78	0xabf21278	-1.720026e-12
79	0x3cd8a085	0.02644373
80	0x3cddabec	0.027059518
81	0xbcae076d	-0.021243775
82	0x06521e1c	3.951873e-35
83	0xaae61475	-4.0870402e-13
84	0x3c16086e	0.009157283
85	0x3cc20604	0.02368451
86	0x0031b030	4.563143e-39
87	0x3d95ce97	0.073147945
88	0x85026323	-6.130779e-36
89	0x3ce62856	0.028095406
90	0x3ddd1ec5	0.107968844
91	0x32d54e8d	2.4832184e-08
92	0x3cf6952e	0.030100431
93	0xbdb375c7	-0.087626986
94	0x8022b693	-3.187902e-39
95	0x3da484dd	0.08033154
96	0x800aeb67	-1.002801e-39
97	0x3d87fbd1	0.06639827
98	0xbb2b613f	-0.0026150492
99	0x000f0062	1.37767e-39
100	0xbcc0f517	-0.023554368
101	0x3b9384a0	0.004501894
102	0x000f3eab	1.400013e-39
103	0xbc1b26fb	-0.009469743
104	0xb585ea69	-9.977495e-07
105	0x3ad6eb50	0.0016397033
106	0x3e67d9e5	0.22641714
107	0x2c861423	3.8107447e-12
108	0x2426a2e3	3.6133483e-17
109	0x39607389	0.00021405345
110	0x3df3de1c	0.119075984
111	0x802c31ed	-4.058672e-39
112	0xbd58d216	-0.05293473
113	0x00370877	5.053989e-39
114	0xa7a76a45	-4.646703e-15
115	0x06c8b51e	7.5497766e-35
116	0xbbf4fcd2	-0.0074764276
117	0xbd8b4ea1	-0.06802107
118	0xbc827064	-0.015922733
119	0xaaa8cba7	-2.9984107e-13
120	0x2211379c	1.9680604e-18
121	0xbd6acea8	-0.05732599
122	0x3c854d61	0.016272249
123	0x3928e6ea	0.0001610775
124	0x004ac3f0	6.866116e-39
125	0xbcb947f0	-0.02261731
126	0x3a5afae4	0.00083534257
127	0xb0829a7d	-9.502653e-10
128	0x80109034	-1.521098e-39
129	0x8029fb6e	-3.855451e-39
130	0x801e9b3c	-2.810752e-39
131	0x020b7982	1.0246978e-37
132	0x004b2040	6.899231e-39
133	0x000c9889	1.156745e-39
134	0x001af5a2	2.47584e-39
135	0x8216a755	-1.1068281e-37
136	0x80285c91	-3.706626e-39
137	0x8010f253	-1.556297e-39
138	0x0015f382	2.0159e-39
139	0x8013dd9f	-1.824377e-39
140	0x01525974	3.8635088e-38
141	0x800957b3	-8.5798e-40
142	0x00256417	3.433819e-39
143	0x00332d9a	4.699969e-39
144	0x8016700e	-2.060579e-39
145	0x02577e2c	1.5831915e-37
146	0x80341016	-4.781216e-39
147	0x004586a4	6.384949e-39
148	0x0049ca07	6.776465e-39
149	0x00282eef	3.690256e-39
150	0x0044a6c8	6.304644e-39
151	0x80455d31	-6.37008e-39
152	0x80109cdc	-1.525638e-39
153	0x801a9c72	-2.443845e-39
154	0x8026b9b9	-3.556374e-39
155	0x80229ab6	-3.177907e-39
156	0x002fd8e1	4.39407e-39
157	0x000acc0d	9.91555e-40
158	0x800fe4ce	-1.459612e-39
159	0x81bd058a	-6.9435583e-38
160	0x81da75fa	-8.024984e-38
161	0x0035d3b6	4.943229e-39
162	0x001d6ca1	2.702198e-39
163	0x8044e7f4	-6.328023e-39
164	0x00254277	3.421756e-39
165	0x80195f41	-2.330058e-39
166	0x000e203b	1.297259e-39
167	0x0203c4d9	9.680853e-38
168	0x8046d747	-6.505712e-39
169	0x8045795c	-6.380185e-39
170	0x802bdc33	-4.027919e-39
171	0x8011a603	-1.620757e-39
172	0x8025fa27	-3.487651e-39
173	0x000a8a2d	9.67923e-40
174	0x00226b2b	3.160851e-39
175	0x025c887d	1.6202218e-37
176	0x812d456c	-3.182489e-38
177	0x01cb5593	7.4693216e-38
178	0x80206027	-2.973229e-39
179	0x8144f5b0	-3.6175787e-38
180	0x821f2bd2	-1.1694051e-37
181	0x003bbbb4	5.48563e-39
182	0x01706ba0	4.4158255e-38
183	0x003d5e02	5.635689e-39
184	0x01b529f9	6.6549127e-38
185	0x8035da70	-4.945642e-39
186	0x8018639b	-2.239784e-39
187	0x802ac212	-3.92671e-39
188	0x8008d710	-8.11834e-40
189	0x003d7d6a	5.646955e-39
190	0x8000f6a6	-8.8481e-41
191	0x01ac2cd0	6.3247124e-38
192	0x00337042	4.723881e-39
193	0x801cc3bd	-2.641612e-39
194	0x0017d901	2.190063e-39
195	0x003d9528	5.655472e-39
196	0x802aecec	-3.942082e-39
197	0x002a6a4e	3.895226e-39
198	0x8007ac8a	-7.04744e-40
199	0x00085cfe	7.68043e-40
200	0x018c9522	5.1641873e-38
201	0x00384b62	5.16983e-39
202	0x00355483	4.897598e-39
203	0x801151bd	-1.590526e-39
204	0x8005c8c9	-5.31206e-40
205	0x002173b2	3.072075e-39
206	0x800fea8a	-1.461669e-39
207	0x80003032	-1.7289e-41
208	0x800ff921	-1.466903e-39
209	0x0011e692	1.643916e-39
210	0x002c2df4	4.057247e-39
211	0x8015cf45	-2.0029e-39
212	0x8023e368	-3.29582e-39
213	0x0038071c	5.145338e-39
214	0x000c0f2c	1.107469e-39
215	0x001870b7	2.244486e-39
216	0x80236466	-3.250259e-39
217	0x815e1b1c	-4.079441e-38
218	0x003d5ad6	5.634551e-39
219	0x003bda8e	5.496697e-39
220	0x81f86d4e	-9.1257657e-38
221	0x81caffab	-7.4569946e-38
222	0x80131036	-1.75069e-39
223	0x800dbbe5	-1.261265e-39
224	0x0048dcbc	6.69134e-39
225	0x002844ef	3.698149e-39
226	0x803e017e	-5.694336e-39
227	0x002d2783	4.146771e-39
228	0x80206d68	-2.977983e-39
229	0x000fee70	1.463068e-39
230	0x8035d8a8	-4.945003e-39
231	0x8002380a	-2.03774e-40
232	0x80346f40	-4.815355e-39
233	0x8013531b	-1.774687e-39
234	0x802332bd	-3.232444e-39
235	0x002a1486	3.864453e-39
236	0x803ed65e	-5.770701e-39
237	0x003836be	5.162426e-39
238	0x802026fe	-2.952724e-39
239	0x80493aac	-6.725039e-39
240	0x81c034e5	-7.060556e-38
241	0x0012e46f	1.734985e-39
242	0x802ddcca	-4.211802e-39
243	0x00239d00	3.270563e-39
244	0x80226c8a	-3.161343e-39
245	0x0040eba2	5.962001e-39
246	0x00216877	3.068046e-39
247	0x80295dcd	-3.798905e-39
248	0x003ebbd9	5.761188e-39
249	0x00054521	4.83976e-40
250	0x00029a43	2.3901e-40
251	0x00096eed	8.66312e-40
252	0x81c9db94	-7.415082e-38
253	0x01ad5da7	6.368455e-38
254	0x801cc127	-2.640684e-39
255	0x802e3fa1	-4.247259e-39

fc1.bias f4 [256]
0	0xbc8f9604	-0.017527588
1	0xbd6d1788	-0.05788377
2	0xbd9aba8f	-0.075551145
3	0xbce05685	-0.027385006
4	0x3cbf2e95	0.023337642
5	0xbc6a70d3	-0.014309126
6	0xbe41333f	-0.18867205
7	0xbd105a1e	-0.035242192
8	0xbd0c029c	-0.034182176
9	0xbbfe6056	-0.007762949
10	0xbddbd261	-0.10733486
11	0x3e0a3afd	0.13499065
12	0xbdb19694	-0.086712986
13	0xbe3fe483	-0.18739514
14	0x3ddf9758	0.109175384
15	0x3cf8cd01	0.030371191
16	0xbd34994f	-0.04409152
17	0xbe0f2752	-0.13979843
18	0xbd9c3ff4	-0.076293856
19	0x3d3bfb94	0.04589422
20	0xbbd99051	-0.0066395183
21	0x3dbc58e4	0.09196642
22	0xbcc8f552	-0.02453104
23	0x3c0a6c60	0.00844869
24	0xbce497ac	-0.027904354
25	0xbdaea0d8	-0.08526772
26	0xbd837b00	-0.06419945
27	0x3c12f24d	0.008968902
28	0x3c1ecb1f	0.0096919825
29	0xbba86fd0	-0.005140282
30	0x3c2bb7c8	0.010480829
31	0xbddccaa8	-0.10780841
32	0x3d385ff4	0.045013383
33	0xbcceef77	-0.02526067
34	0xbdb10c11	-0.086448796
35	0xbb368462	-0.0027849902
36	0x3cbaa532	0.02278385
37	0x3d63a817	0.055580225
38	0x3d776e31	0.06040782
39	0x3de73004	0.11288455
40	0x3bb4257f	0.005497634
41	0x3c57aef0	0.013164267
42	0x3c33c86c	0.010973077
43	0xbd88f5b3	-0.066874884
44	0x3bc8c7df	0.006127342
45	0x9ce237de	-1.4969867e-21
46	0xbd1bdd17	-0.038052645
47	0xbda09900	-0.078416824
48	0x3d7cc960	0.061715484
49	0x3d2f8ea7	0.042860653
50	0xbcfcd654	-0.030863918
51	0x3dd1c2ec	0.102422565
52	0xbd3b8b06	-0.04578688
53	0x3c377219	0.011196637
54	0x0016830a	2.067389e-39
55	0x3d9de88b	0.0771037
56	0xbd24e3a4	-0.040256158
57	0x3d0d88f8	0.03455445
58	0xbdc3a0b6	-0.095521376
59	0xbdde3c45	-0.10851339
60	0x3d26f296	0.04075869
61	0xbd52cd98	-0.0514656
62	0xbd9e1836	-0.077194616
63	0xbd2369c4	-0.039895788
64	0x36ee707d	7.106048e-06
65	0x3d15177f	0.03639936
66	0xb82d05dd	-4.1251875e-05
67	0x3de9d241	0.11417056
68	0x3c5151e4	0.012775872
69	0x3ce8ed59	0.028433489
70	0x3d2587b4	0.04041262
71	0x3b664c75	0.0035140787
72	0x3d241dd5	0.040067513
73	0xbde8434c	-0.11340961
74	0x3dd0f5a8	0.10203105
75	0xbd32a0b4	-0.04361029
76	0x3cc61b4e	0.024182942
77	0x3d86c090	0.06579697
78	0x3c88e5b4	0.016711093
79	0xbcb6058b	-0.02221944
80	0x3b0ab74b	0.002116638
81	0xbbd050f4	-0.0063573066
82	0x055da27d	1.04212144e-35
83	0x3ca8d6f7	0.020610316
84	0x3d174c35	0.03693791
85	0x3bc340d7	0.0059586572
86	0xbda65028	-0.08120757
87	0xbdd70774	-0.104994684
88	0xbc2cd31c	-0.010548379
89	0xbcab7c3c	-0.020933263
90	0xbe1c8a5f	-0.1528716
91	0xbcc6be0b	-0.024260541
92	0xbcdbd280	-0.026833773
93	0x3ba287b6	0.0049600257
94	0xbd3d2ed2	-0.04618723
95	0xbd44fb67	-0.04809132
96	0xbcb65a89	-0.022259967
97	0xbcc37666	-0.023860168
98	0xbd9d41b9	-0.07678551
99	0x3e279c37	0.16368185
100	0xbcbacee5	-0.022803733
101	0x3cbe9713	0.023265397
102	0xbd937551	-0.07200111
103	0x3cbd9ac8	0.023145095
104	0xbd9d8b37	-0.07692569
105	0xbc70382b	-0.014661829
106	0xbd70ba85	-0.05877163
107	0x3c8e5036	0.017372232
108	0x0001ba53	1.58676e-40
109	0xbd8d6171	-0.06903351
110	0xbde01570	-0.10941589
111	0xbdefa59a	-0.11701508
112	0x3b7a70fa	0.0038214312
113	0x3d247e38	0.040159434
114	0xbd1ee62c	-0.038793728
115	0x3e32b978	0.17453563
116	0x3dbdc550	0.0926615
117	0x3ce1ca44	0.027562268
118	0xbd667f16	-0.056273542
119	0xbccc9482	-0.024973158
120	0xbc178712	-0.009248512
121	0xbcf85dff	-0.030318258
122	0x3c93e450	0.018053204
123	0xbdee4c16	-0.11635606
124	0x3d9615fb	0.07328411
125	0xbc864aa4	-0.016393013
126	0x3cda714f	0.026665358
127	0xbd17bf2b	-0.037047546
128	0xbdb77e1e	-0.08959602
129	0xbdc25c38	-0.094902456
130	0x3c94e302	0.018174652
131	0xbdfd1fa5	-0.12359551
132	0xbe1e060b	-0.15431993
133	0xbdc9b159	-0.098482795
134	0xbc9eaacf	-0.019368557
135	0xbdbc044a	-0.091805056
136	0xbdc957b2	-0.0983118
137	0xa2ab22ff	-4.6386696e-18
138	0xa1e147b9	-1.5265578e-18
139	0x3cc1f87c	0.023678057
140	0x3d2ee0cd	0.042694855
141	0x3c0750bf	0.008258997
142	0x3d7d8748	0.061896592
143	0xbd1f028f	-0.0388208
144	0x3bab2ef2	0.005224102
145	0xbd9ec78d	-0.07752905
146	0x3b47705b	0.003043196
147	0x3d7cd4ac	0.061726257
148	0xbd451bf2	-0.048122354
149	0xbe0c19f8	-0.13681781
150	0xbcb619ce	-0.022229102
151	0xbe1dbc84	-0.15403944
152	0x3d4de450	0.050266564
153	0xbb38eec0	-0.0028218478
154	0xbccb3f43	-0.024810439
155	0xa128e8fb	-5.722896e-19
156	0x3d12c1a5	0.035829205
157	0xbda9fcab	-0.08300146
158	0x3d647ee5	0.05578508
159	0xbd542c6b	-0.051800173
160	0xbdbe0783	-0.092787765
161	0x3d5f420c	0.054506347
162	0x3b80f3c0	0.0039353073
163	0xbd27628d	-0.04086547
164	0x3bed2503	0.007237078
165	0xbd264301	-0.040591244
166	0xbd17779f	-0.036979314
167	0x3e0e770e	0.13912603
168	0xbd3d7d14	-0.046261862
169	0x3e21055c	0.157247
170	0xbcd522b3	-0.026017522
171	0xbd63cffc	-0.05561827
172	0xbe2de63f	-0.16982363
173	0xbd522bec	-0.05131142
174	0x3dcf1478	0.10111326
175	0xa2b53250	-4.911342e-18
176	0x3db034c0	0.08603811
177	0xbc451bba	-0.012030536
178	0x3d36f691	0.044668738
179	0x3c8e2285	0.017350445
180	0xbd058c48	-0.032604486
181	0xbd3a6822	-0.045509465
182	0xbcf13fe8	-0.029449418
183	0xbbb0fc8b	-0.005401199
184	0xbca9255d	-0.020647699
185	0xbca0585e	-0.019573387
186	0x3c44d4da	0.012013638
187	0x3d6d98e5	0.05800714
188	0x3c08cd7a	0.008349771
189	0xb80e4930	-3.39236e-05
190	0xbc06586b	-0.008199791
191	0xbd2bf59b	-0.041982275
192	0x3d982478	0.07428831
193	0x3cbd0bc6	0.023076903
194	0x3d516a83	0.051126968
195	0xbd0eb7b4	-0.03484316
196	0x801e7831	-2.798181e-39
197	0xbced15ca	-0.028941054
198	0x3dafe82a	0.08589204
199	0xbdaad368	-0.08341104
200	0xbd22415d	-0.039613117
201	0xbb82960c	-0.003985172
202	0xbd9728af	-0.07380807
203	0x3d7e7ee6	0.06213274
204	0xbcb418fd	-0.021984572
205	0xbcb66cd3	-0.022268688
206	0x3b292f9b	0.0025815729
207	0xbd149c53	-0.036281895
208	0xbbf493d7	-0.007463913
209	0xbab1a677	-0.0013553639
210	0xbd892262	-0.06696011
211	0xbd85e5de	-0.06537984
212	0xbcac23b8	-0.021013126
213	0xbd0159ee	-0.031579904
214	0xbe2cacf0	-0.16862845
215	0xbc94901c	-0.018135123
216	0xbd2178d2	-0.039421864
217	0xbddfad41	-0.109217174
218	0x92d368e2	-1.3341828e-27
219	0xbd091125	-0.033463616
220	0xb1719566	-3.5155039e-09
221	0xbd46879d	-0.048469175
222	0xbcd5f11d	-0.026115948
223	0x3d683a32	0.056696124
224	0x3daa2b73	0.083090685
225	0x3d8aba1e	0.0677378
226	0xad4d8677	-1.1682758e-11
227	0xbc473835	-0.012159397
228	0x3d0a33a0	0.03374064
229	0x3d196917	0.037453737
230	0xbc0c87c4	-0.008577291
231	0xbb8f2c7b	-0.004369316
232	0x3d1e18cb	0.038597863
233	0xb223340e	-9.499685e-09
234	0x3d832c99	0.06404991
235	0xbd079033	-0.033096503
236	0xbd9eb117	-0.07748621
237	0x3dd9cbfb	0.10634609
238	0xbcaa740e	-0.020807292
239	0x3d657300	0.056017876
240	0xbcd39d03	-0.025831705
241	0x3ddb22fd	0.10700033
242	0x3dca877b	0.09889122
243	0xbcf80da9	-0.030279951
244	0xbdcccbf8	-0.099998415
245	0x3c89d2b9	0.016824113
246	0xbc81ef4f	-0.015861182
247	0x3ba4dc87	0.0050311717
248	0xbb9642cf	-0.004585601
249	0x3c9ffaf1	0.019528838
250	0x3de43275	0.111424364
251	0x3dd4cf2c	0.103910774
252	0x3c3f560f	0.011678233
253	0x3d13a348	0.03604439
254	0xbb987880	-0.0046530366
255	0x3c793add	0.015211788

fc2.weight f4 [128, 256]
0	0x3d5cf752	0.0539468
1	0xbd0a87a6	-0.03382077
2	0x3e5f833d	0.21827407
3	0x3de44ea8	0.11147815
4	0xbe0cf16b	-0.13763969
5	0xbcf39f24	-0.02973897
6	0xbcfb5e80	-0.03068471
7	0xbd2a38d7	-0.041558113
8	0x3d0ee8a9	0.03488985
9	0x3de53b8c	0.11192998
10	0xbc8a80f9	-0.016907202
11	0xbdc5761c	-0.09641668
12	0x3d615be0	0.05501926
13	0xbc8af911	-0.016964467
14	0xbe73b06d	-0.2379777
15	0x3d268091	0.040649954
16	0xbb883166	-0.0041562794
17	0x3dbcb771	0.09214676
18	0xbd45b67a	-0.048269726
19	0x3c8a5ec0	0.016890883
20	0x3d422575	0.047399003
21	0xbe6bb539	-0.2301835
22	0x3e3d8d0c	0.18510836
23	0x3d34120d	0.043962527
24	0x38f8c0aa	0.00011861448
25	0x3d1a28f1	0.0376367
26	0xbd36537f	-0.04451322
27	0xbe3c3a1c	-0.18381542
28	0x3e1529ef	0.14566778
29	0x992fdf66	-9.092403e-24
30	0xbd062e07	-0.03275874
31	0xbdf93909	-0.12169082
32	0x3d13bf3e	0.036071055
33	0x3de0e66d	0.1098145
34	0x3caa489d	0.020786578
35	0x3dcecf20	0.100981
36	0xbe57e9be	-0.2108526
37	0x3e328b03	0.17435841
38	0xbdf87b8c	-0.1213294
39	0x3cf3e96a	0.029774386
40	0x3e6db9a4	0.23215348
41	0x3abe6070	0.001452459
42	0x3d9f9aea	0.077932194
43	0x3db1e9d7	0.086871795
44	0xbe552e17	-0.20818363
45	0x9385066c	-3.3580253e-27
46	0x3dbc598e	0.09196769
47	0xbce1c417	-0.027559323
48	0x3cc17092	0.023613248
49	0xbe08e566	-0.13368759
50	0x3d034514	0.0320483
51	0xbd9c111c	-0.07620451
52	0xbd025c50	-0.031826317
53	0xbdafb7f4	-0.08580008
54	0x001c6738	2.608422e-39
55	0x3d64f23f	0.055895086
56	0xbc8f41d1	-0.017487438
57	0xbbdc14e3	-0.006716357
58	0x3dbe7572	0.09299745
59	0x3cb8ee71	0.022574635
60	0x3d900aac	0.070332855
61	0x3d82d05e	0.06387399
62	0x3d4c30cf	0.049851235
63	0x3dfdf231	0.1239971
64	0xb43bc29a	-1.7486528e-07
65	0xbd3ed161	-0.046586398
66	0x2ab26d84	3.1695143e-13
67	0x3e4ab857	0.19796883
68	0xbd9221c0	-0.071353436
69	0x3dc12f41	0.09432841
70	0x3dd0b8a8	0.101914704
71	0xbe025738	-0.12728584
72	0xbe2dd6a4	-0.1697641
73	0x3dc39c2a	0.0955127
74	0x3b9426e8	0.0045212395
75	0x3de69d9a	0.11260529
76	0xbe46407d	-0.19360538
77	0x3d32e33e	0.043673746
78	0xbd0cedde	-0.034406535
79	0x3dd60578	0.10450262
80	0xbe0037b3	-0.12521248
81	0x39396701	0.00017681347
82	0x80107308	-1.510633e-39
83	0x3e0c87a3	0.13723616
84	0x3ccda249	0.025101798
85	0x3c35f735	0.011106302
86	0x3d45c1ad	0.048280407
87	0xbcefbb20	-0.029264033
88	0xbe59837d	-0.21241565
89	0x3b023f3d	0.0019874119
90	0x3c1b8312	0.009491699
91	0x3cf15b03	0.029462343
92	0x3cc6c9f4	0.02426622
93	0x3e182508	0.14857876
94	0xbdbab130	-0.09115827
95	0x3a9fa6f4	0.0012180493
96	0x3dd2088c	0.102555364
97	0xbe202c35	-0.15641864
98	0xbd4d04e1	-0.05005348
99	0xbc8b54c1	-0.017008187
100	0x3d540f62	0.051772483
101	0x3cb3904b	0.02191939
102	0x3d4f1875	0.050560433
103	0x3ca0855c	0.01959484
104	0xbd09983c	-0.033592448
105	0x3ddb8e88	0.10720545
106	0x3cdc8494	0.026918687
107	0xbd07f5ab	-0.03319327
108	0x8035686e	-4.904744e-39
109	0x3a0d0c50	0.0005380558
110	0xbdca1953	-0.098681115
111	0x3d9818c4	0.07426599
112	0x3d3541f0	0.044252336
113	0x3dc96cb0	0.098351836
114	0xbd5acd56	-0.05341848
115	0xbd476708	-0.048682243
116	0x3d8990d8	0.0671708
117	0x3d494325	0.0491363
118	0x3b1211f5	0.0022288535
119	0x3dd009c7	0.10158115
120	0xbd9cd9ce	-0.076587304
121	0x3d3fa6e1	0.046790008
122	0x3c59fd80	0.013305068
123	0x3e2d401b	0.16918986
124	0xbe50aec0	-0.20379162
125	0x3daebec7	0.08532482
126	0xbe1ea638	-0.15493095
127	0xbe0d523b	-0.138009
128	0x3da47cc4	0.0803161
129	0xbc7f57bf	-0.015584885
130	0xbe09816d	-0.13428278
131	0xbe12c652	-0.14333466
132	0x3d9076b0	0.07053888
133	0x3a8f897b	0.0010951007
134	0x3cb01d56	0.021498363
135	0x3e57e1af	0.21082185
136	0x3e2931f8	0.16522968
137	0x000fecc5	1.46247e-39
138	0x800afcfb	-1.009107e-39
139	0x3d697e41	0.05700517
140	0xbcdf43e8	-0.02725406
141	0x3db5e2d8	0.08881158
142	0xbdef0fde	-0.11672948
143	0x3cdfcbfa	0.027318943
144	0x3ce2c996	0.027684014
145	0x3e007594	0.12544852
146	0xbdc12335	-0.09430543
147	0xbe5cc117	-0.21558033
148	0xbca8f571	-0.020624848
149	0xbde63666	-0.112408444
150	0x3c8c6e92	0.017142568
151	0x3d8314ef	0.06400477
152	0x3e4b2db9	0.1984166
153	0xbdb00876	-0.08595364
154	0x3dfc4711	0.12318242
155	0x9fb58998	-7.688411e-20
156	0xbc861661	-0.016368093
157	0xbde2db96	-0.11077039
158	0xbc6e4489	-0.014542707
159	0x3d47c4a8	0.04877153
160	0x3dde7328	0.10861808
161	0xbc660946	-0.014040297
162	0xbe2fd7de	-0.1717219
163	0x3dc16cfc	0.09444615
164	0x3d0de5d0	0.034642994
165	0xbbca8e4d	-0.0061815144
166	0x3d134023	0.035949837
167	0xbd29a612	-0.041418143
168	0x3c892bad	0.016744459
169	0xbdb60ef2	-0.08889569
170	0xbd8fc20c	-0.070194334
171	0x3df07af4	0.117422014
172	0x3e0b7c72	0.13621691
173	0x3cd4c3c4	0.025972255
174	0xbd5c2e18	-0.053754896
175	0x23ec8ecc	2.5647648e-17
176	0xbd5934fb	-0.05302904
177	0xbd24a5b7	-0.0401971
178	0xbc923c59	-0.017851042
179	0x3b891698	0.0041836016
180	0x3d96ecb8	0.07369369
181	0x3d62886c	0.055305883
182	0x3cac037f	0.02099776
183	0xbe41b41e	-0.18916366
184	0xbcf5449f	-0.029939948
185	0x3d990175	0.07470981
186	0xbc25fe33	-0.010131407
187	0x3e1e6aaf	0.15470384
188	0xbd3bf887	-0.04589131
189	0xbd1ef3ff	-0.03880691
190	0x3d7999ca	0.06093768
191	0x3d508338	0.05090639
192	0x3bee90ac	0.00728043
193	0x3d865b1b	0.06560346
194	0xbe2fd66b	-0.17171638
195	0x3e53fea9	0.20702614
196	0x04eb4d61	5.5319296e-36
197	0x3ca19504	0.019724376
198	0xbd5cac7d	-0.053875435
199	0x3d5a6b0d	0.053324748
200	0x3dd540fa	0.10412784
201	0x36de2201	6.620074e-06
202	0xbd7458ab	-0.059654873
203	0xbe967613	-0.29386958
204	0x3d9f1e38	0.07769436
205	0x3def00ba	0.116700605
206	0xbe030c45	-0.12797649
207	0x3dfc2565	0.1231182
208	0xbdaa7aa7	-0.08324175
209	0x3e3b2d27	0.18278943
210	0x3dcc4152	0.09973396
211	0x3d392f96	0.045211397
212	0x3cb09109	0.021553533
213	0xbe03b225	-0.12860925
214	0x3d7d08b0	0.061775863
215	0x3d95f05f	0.07321238
216	0x3bf2527d	0.0073950873
217	0xbcff0420	-0.031129897
218	0x8048ca32	-6.68469e-39
219	0xbd3237b7	-0.043510165
220	0x0e0d6d59	1.743224e-30
221	0x3e4a118f	0.1973326
222	0xbd8c70f6	-0.06857483
223	0xbdd44442	-0.10364582
224	0x3ca75f4b	0.020431181
225	0xbd7e3b6c	-0.062068388
226	0x802986d5	-3.813624e-39
227	0x3ddca166	0.10772972
228	0x3ccca06f	0.024978844
229	0x3ce575e2	0.028010312
230	0x3da1bb87	0.07897096
231	0x3d6b6f4f	0.0574792
232	0x3d1236de	0.035696857
233	0xb32b66a6	-3.99074e-08
234	0xbe64b14d	-0.2233326
235	0x3a5e0b59	0.0008470319
236	0xbcd2d9a3	-0.025738543
237	0x3d87bcf0	0.06627834
238	0x3d6465a3	0.05576099
239	0xbda1c598	-0.07899016
240	0x3bd51061	0.0065021967
241	0xbe352f06	-0.1769372
242	0xbd73ccb2	-0.059521385
243	0x3da84378	0.08215994
244	0xbe272d20	-0.16325808
245	0x3d0876ff	0.03331661
246	0xbe7d2d8b	-0.24724405
247	0x3ca50298	0.020142838
248	0x3de7db0a	0.11321075
249	0x3defe8c5	0.11714319
250	0xbb95a471	-0.004566722
251	0x3bd147a4	0.006386714
252	0xbb16d439	-0.0023014678
253	0x3d97c185	0.07409958
254	0xbde2da2e	-0.11076771
255	0xbd22e1e8	-0.039766222

fc2.bias f4 [128]
0	0x3e0b1c2f	0.1358497
1	0xbdc2087a	-0.09474273
2	0xbe19ca1d	-0.15018506
3	0x3d10aece	0.035322957
4	0x3d1b7ad2	0.037958927
5	0x3cf58e9b	0.029975226
6	0x3de26003	0.11053469
7	0x3dd91541	0.10599757
8	0x3de3334f	0.11093771
9	0x3e091a88	0.13389027
10	0x3db2d7a0	0.087325335
11	0x3d798451	0.060917202
12	0x3db7a8d0	0.08967745
13	0x3bc9c6e2	0.006157742
14	0x3d207f6e	0.039184026
15	0x3da9df76	0.08294575
16	0xbd770744	-0.060309663
17	0x3d7093a3	0.058734547
18	0x3dbe5ee9	0.092954464
19	0xbbe4f103	-0.0069867386
20	0x3c1ed5cb	0.009694527
21	0x3bfce6e0	0.007717952
22	0x3db80b27	0.08986502
23	0x3ccc335c	0.024926834
24	0x3d1d8c72	0.038464017
25	0x3d6df3a0	0.058093667
26	0x3d4d89d8	0.050180286
27	0xbd96ceac	-0.07363638
28	0x3dba7fce	0.09106408
29	0x3d496001	0.049163822
30	0x3e012405	0.12611397
31	0x3e58201d	0.21106
32	0x3dfcec82	0.12349798
33	0x3dc780f6	0.09741394
34	0x3d8be7c3	0.068313144
35	0x3e30ba90	0.17258668
36	0x3e1af9b0	0.1513431
37	0x3d042eb2	0.032271095
38	0x3d8285f3	0.06373205
39	0xbbb2d863	-0.005457924
40	0x3e279d47	0.1636859
41	0x3d817130	0.06320417
42	0x3dd0f8b4	0.10203686
43	0x3d84d6aa	0.064862564
44	0x3d50c86d	0.05097239
45	0xbd051857	-0.032493915
46	0x3de01887	0.10942178
47	0x3e08e5b9	0.13368882
48	0x3d871944	0.06596616
49	0x3dace9e9	0.08443052
50	0xbdb668f8	-0.0890674
51	0x3e1eada0	0.1549592
52	0x3dc283f6	0.09497826
53	0x3b8c140c	0.0042748507
54	0x3dbc6f39	0.092009015
55	0x3d584fff	0.052810665
56	0xbda7c83f	-0.08192491
57	0xbdb10c89	-0.08644969
58	0x3d62604f	0.05526763
59	0x3dbcf907	0.09227186
60	0xb698d9ed	-4.555323e-06
61	0xb385ca69	-6.230113e-08
62	0xbda24fa2	-0.07925345
63	0x3cf90f8c	0.030402921
64	0x3e068f4b	0.131406
65	0x3cdbf311	0.026849302
66	0x3e2ef74d	0.17086525
67	0x3da1f6d2	0.07908405
68	0x3e27b6e3	0.1637836
69	0x3d53bb07	0.051692035
70	0x3d16e0c4	0.036835447
71	0x3e1c8dfd	0.15288539
72	0xbd205421	-0.03914273
73	0xbc05fa02	-0.008177282
74	0xbde673b1	-0.11252535
75	0x3dd1c2f0	0.102422595
76	0x3d500b5f	0.050792094
77	0xbd8c46d0	-0.06849444
78	0x3e0e55d2	0.13899925
79	0xbae547f1	-0.0017492754
80	0x3e08864c	0.1333248
81	0x3cfd020f	0.03088477
82	0x3dc58421	0.09644342
83	0x3d63aa1b	0.055582147
84	0x3e1b860a	0.1518785
85	0x3c971a20	0.018445075
86	0x3e8a4b31	0.27010491
87	0x3e0ac7da	0.135528
88	0xbd164204	-0.03668405
89	0x3d1fc05e	0.039001815
90	0xbd8a9c86	-0.06768136
91	0x3e10236c	0.14076012
92	0x3d84b9e2	0.06480767
93	0x3e1b6c0b	0.15177934
94	0x3cd8d5b3	0.026469087
95	0x3dc1caf9	0.09462542
96	0x3d9e9cb0	0.077447295
97	0x3ddd8f4c	0.10818347
98	0x3dcd133e	0.10013436
99	0x3d76dfce	0.06027203
100	0x3df785a2	0.12086035
101	0x3dcd4fc4	0.1002498
102	0x3e7c697c	0.24649614
103	0x3e64da9a	0.22349015
104	0x3d8e0191	0.069338925
105	0xbd83f91b	-0.064439975
106	0x3dfeec10	0.12447369
107	0xbd050557	-0.032475796
108	0x3da58ae6	0.080831334
109	0xbd456e75	-0.048201043
110	0x3d9acf91	0.075591214
111	0x3dd71751	0.10502494
112	0x3e2b4dcc	0.16728896
113	0x3d87dbf6	0.06633751
114	0xbb9efebd	-0.0048521445
115	0x3c9daa89	0.019246357
116	0x3dde1c89	0.108452864
117	0x3da01eb6	0.07818358
118	0x3defbaa8	0.11705524
119	0xbdacb6c3	-0.084332965
120	0x3e081005	0.13287361
121	0x3d02ba4e	0.031915955
122	0x3d94ec9d	0.07271693
123	0x3d227eec	0.039671823
124	0x3dbfed14	0.09371391
125	0x3dea6369	0.11444742
126	0x3d3c1a44	0.045923486
127	0x3e5d15e7	0.21590386

fc3.weight f4 [13, 128]
0	0xbdffe15b	-0.12494155
1	0x3e53de81	0.20690347
2	0x3e0bac79	0.13640012
3	0xbe6c5aca	-0.23081508
4	0x3d4ad2ab	0.049517315
5	0xbdcae770	-0.099074244
6	0x3e0d6862	0.1380935
7	0x3e363dd8	0.17797029
8	0xbe3271aa	-0.17426172
9	0xbe41dd03	-0.18931966
10	0xbe286d72	-0.16448
11	0x3e357f9e	0.17724463
12	0xbeb0204e	-0.34399647
13	0xbe74698c	-0.23868388
14	0xbeaf8202	-0.34278876
15	0xbe11629b	-0.14197771
16	0x3c5480da	0.012970174
17	0xbe71ec08	-0.23625195
18	0x3dfa8413	0.122322224
19	0xbded4015	-0.11584488
20	0xbded43e3	-0.11585214
21	0xbe1c171d	-0.15243192
22	0xbe5a5a61	-0.2132354
23	0x3df717f1	0.12065113
24	0x3dbcfa0c	0.0922738
25	0xbe480ef7	-0.19536959
26	0xbe5d3c95	-0.21605141
27	0xbe2ad7ec	-0.1668393
28	0x3d03af69	0.032149706
29	0xbe8c4ce9	-0.27402428
30	0x3da0cbad	0.07851348
31	0xbe5f8c1d	-0.21830793
32	0xbe3501eb	-0.17676513
33	0xbde0f0f7	-0.109834604
34	0xbd6d20d2	-0.057892628
35	0xbe5db019	-0.21649207
36	0x3d6fdd46	0.058560632
37	0x3d6f1147	0.058366086
38	0xbebe7682	-0.3719979
39	0xbe42f15d	-0.19037385
40	0xbe5b00fd	-0.21387096
41	0xbd53faba	-0.051752783
42	0x3e14690d	0.14493199
43	0xbe2f0c5f	-0.17094563
44	0xbe933ae9	-0.28755882
45	0x3db1a994	0.086749226
46	0xbca31662	-0.019908134
47	0xbdfdb5ce	-0.12388192
48	0x3e097799	0.13424529
49	0x3d75e1d4	0.06002982
50	0xbcbbbfd8	-0.022918627
51	0xbe13205a	-0.1436781
52	0xbdd256ce	-0.10270463
53	0x3e1541b6	0.14575848
54	0xbddb0b3b	-0.106955014
55	0xbe40f69a	-0.18844071
56	0xbde34e7e	-0.110989556
57	0xbda53cbe	-0.08068226
58	0xbe0e80b9	-0.13916291
59	0x3d9ae9ab	0.075641
60	0xb4ff615c	-4.756829e-07
61	0xa92e3270	-3.867951e-14
62	0xbe916a8f	-0.2840161
63	0xbd9f8500	-0.077890396
64	0x3deca5e6	0.1155508
65	0x3ded37cc	0.11582908
66	0xbe8b849d	-0.27249613
67	0x3d22c7ce	0.03974133
68	0x3e2955b4	0.165366
69	0x3dd09cf4	0.101861864
70	0xbe13a273	-0.14417438
71	0xbd9d455f	-0.07679247
72	0x3d236c8f	0.03989845
73	0x3e241b14	0.16025954
74	0x3e4d4cb9	0.20048799
75	0x3e48e2c9	0.19617762
76	0x3e46582b	0.19369571
77	0xbe3ad1b4	-0.18244058
78	0xbe5a0330	-0.21290278
79	0x3d3c2ea1	0.045942906
80	0xbe9f7be3	-0.31149206
81	0x3df5aa0d	0.11995325
82	0x3dd30a22	0.10304667
83	0x3dfb5ac7	0.12273174
84	0x3d39cd5d	0.045361865
85	0xbe35edb8	-0.17766464
86	0xbe856c28	-0.2605908
87	0xbe5de83f	-0.21670626
88	0x3e124dc0	0.14287472
89	0x3e0d10e6	0.13775977
90	0xbdf217d4	-0.11820951
91	0x3d14f9bd	0.03637098
92	0x3df3121d	0.11868689
93	0x3d82d179	0.0638761
94	0x3e066fdf	0.13128613
95	0xbe6e8c71	-0.23295762
96	0x3d793167	0.06083813
97	0xbe384c06	-0.1799775
98	0xbb98d5cc	-0.0046641584
99	0xbd9cbe13	-0.07653441
100	0x3ddc34e5	0.10752276
101	0xbea52387	-0.32253668
102	0xbe28814d	-0.16455574
103	0xbdfcdfd1	-0.12347377
104	0x3e4546e6	0.19265327
105	0xbe8c0fab	-0.27355704
106	0x3c1982fa	0.009369606
107	0xbdec13f4	-0.11527243
108	0xbe4c74a9	-0.19966377
109	0xbc7fea58	-0.015619837
110	0xbcc3a38b	-0.023881694
111	0xbec3e1e0	-0.38258266
112	0xbd1c266a	-0.038122572
113	0xbe373b2c	-0.17893666
114	0x3de62391	0.112372525
115	0xbe37f7b2	-0.17965582
116	0x3db47dd0	0.08813059
117	0x3e1d84c7	0.15382682
118	0xbd3e083c	-0.04639457
119	0x3e23d66d	0.15999766
120	0xbeabe8d0	-0.3357606
121	0x3e609eb7	0.21935545
122	0x3e2424ef	0.16029714
123	0xbd953a99	-0.07286567
124	0x3dd066a9	0.10175831
125	0xbdb74e07	-0.089504294
126	0xbd396245	-0.045259733
127	0xbbcb9081	-0.0062122946
128	0x3cc092e5	0.023507545
129	0x3e0c19ff	0.13681792
130	0x3e205e4d	0.15660973
131	0xbdf65f10	-0.120298505
132	0xbd1a5fef	-0.037689146
133	0xbd5d85fb	-0.05408285
134	0xbe2f2bab	-0.17106502
135	0xbf033c8d	-0.5126427
136	0xbe913672	-0.2836185
137	0xbda3f65d	-0.080059744
138	0xbe5b993e	-0.21445176
139	0xbcbecdac	-0.023291431
140	0x3e3caa7b	0.18424408
141	0x3e02054f	0.12697338
142	0xbee99a7f	-0.45625684
143	0x3c008cda	0.007846082
144	0xbd515657	-0.05110773
145	0xbe842c41	-0.25815013
146	0x3dd88dac	0.10573897
147	0x3dcfbb2c	0.10143122
148	0x3e3154b1	0.17317463
149	0xbe2ee996	-0.17081293
150	0x3df5af3e	0.119963154
151	0x3e19b4c7	0.15010367
152	0xbe7b9449	-0.24568285
153	0xbe775d54	-0.24156696
154	0xbe337f24	-0.17528969
155	0xbea324cc	-0.3186401
156	0x3e1b63d3	0.15174799
157	0xbe95e4f6	-0.29276246
158	0xbe92e124	-0.28687394
159	0xbc19c1f0	-0.009384617
160	0x3da48f69	0.08035166
161	0xbe6bf898	-0.2304405
162	0xbe13452d	-0.14381857
163	0x3d817691	0.06321443
164	0xbf10857a	-0.5645367
165	0x3d936444	0.071968585
166	0x3cdd809d	0.027038867
167	0x3e082850	0.13296628
168	0xbe4f27c3	-0.20230012
169	0xbe318988	-0.1733762
170	0x3e2d13e7	0.16902123
171	0xbde4fabf	-0.111806385
172	0xbe38982c	-0.18026799
173	0x3d26f73b	0.04076312
174	0x3dc4efe7	0.0961607
175	0x3c6af97c	0.014341708
176	0x3db255a2	0.087077394
177	0x3d15f8ee	0.03661435
178	0xbe23aa47	-0.15982924
179	0xbe41119b	-0.18854372
180	0xbe64c0e6	-0.2233921
181	0x3c9b0e56	0.018927734
182	0xbed45e54	-0.41478217
183	0x3db6fd92	0.089350834
184	0xbe3185a5	-0.17336138
185	0xbd771f20	-0.060332417
186	0x3e4afb1a	0.1982235
187	0x3d3a2e80	0.045454502
188	0x34117c24	1.354934e-07
189	0x36066a01	2.0029258e-06
190	0xbe97e3c8	-0.2966597
191	0x3c81f276	0.015862685
192	0x3d470bd5	0.04859527
193	0x3e545b9e	0.20738074
194	0xbe39b00a	-0.1813356
195	0x3d90fe61	0.07079769
196	0xbde3a9e5	-0.11116389
197	0x3dccb35c	0.099951476
198	0x3e400794	0.18752891
199	0xbe9ff698	-0.31242824
200	0xbbdbaf9a	-0.006704283
201	0x3e496f54	0.19671375
202	0xbda755c8	-0.08170658
203	0x3c849cc4	0.016188033
204	0xbc6a492c	-0.014299672
205	0xbd610f0a	-0.054945983
206	0xbe23a817	-0.1598209
207	0x3e01269b	0.12612383
208	0xbed5a25e	-0.4172544
209	0x3df00897	0.117203884
210	0xbec49d15	-0.38401094
211	0x3df2a4bd	0.118478276
212	0xbd5927e6	-0.053016566
213	0xbe7e9812	-0.24862698
214	0xbe45f5a0	-0.1933198
215	0xbc255f89	-0.010093578
216	0x3e0c9cbd	0.13731666
217	0x3e2586a1	0.16164638
218	0xbc4e6c82	-0.0125991125
219	0xbe983a55	-0.29732004
220	0x3c85560c	0.016276382
221	0xbec8d06a	-0.39221507
222	0xbb5bbab4	-0.0033528032
223	0xbedb1bbd	-0.427946
224	0xbe8cc81c	-0.2749642
225	0x3cef49a0	0.029209912
226	0x3dbb4e63	0.091458105
227	0xbb7a45ee	-0.0038188654
228	0xbefafeda	-0.4902256
229	0xbe7e9a63	-0.24863581
230	0x3d484181	0.048890594
231	0x3ce37e33	0.027770137
232	0x3cb8736e	0.022515979
233	0xbe3ddfa0	-0.18542337
234	0x3defb206	0.11703877
235	0x3e1ba5eb	0.15200011
236	0x3d9085dc	0.07056782
237	0x3d312f37	0.04325792
238	0x3e2917a7	0.16512929
239	0x3d8c35c9	0.06846196
240	0x3e0067c8	0.1253959
241	0xbea38155	-0.3193461
242	0x3d0d8f2b	0.034560364
243	0xbe71569c	-0.23568195
244	0x3dad6185	0.08465866
245	0xbebb0dab	-0.36533865
246	0x3e1e8ccb	0.15483396
247	0x3da47543	0.080301784
248	0xbea6aaf2	-0.32552296
249	0x3dc11b61	0.0942905
250	0x3d698629	0.05701271
251	0x3d97e8b9	0.07417435
252	0xbe8b9b21	-0.2726679
253	0x3df0ad00	0.11751747
254	0x3e18a1fc	0.14905542
255	0xbe236296	-0.15955576

fc3.bias f4 [13]
0	0xbe8c4f0d	-0.2740406
1	0xbd720b70	-0.05909294
2	0xbdaa6f65	-0.08322028
3	0xbdb56ad4	-0.088582665
4	0x3e17415e	0.1477103
5	0x3c9cd7ee	0.019145932
6	0xbd60888a	-0.054817714
7	0x3db764ea	0.08954795
8	0x3e40411d	0.18774839
9	0x3d3df861	0.04637945
10	0xbe131d6d	-0.14366694
11	0x3e382249	0.17981829
12	0x3b0bf81d	0.0021357604
